…
6716188821932 _bemps_dump_stats: Dumping bemps stats
6716188824216 _bemps_dump_stats: count of beacon times: 1
6716188837296 _bemps_dump_stats: min beacon time (ns): 231643
6716188839482 _bemps_dump_stats: max beacon time (ns): 231643
6716188841694 _bemps_dump_stats: avg beacon time (ns): 231643
6716188883086 _bemps_dump_stats: count of free times: 1
6716188885439 _bemps_dump_stats: min free time (ns): 57497
6716188887738 _bemps_dump_stats: max free time (ns): 57497
6716188889864 _bemps_dump_stats: avg free time (ns): 57497

layer     filters    size              input                output
    0 conv     32  3 x 3 / 1   448 x 448 x   3   ->   448 x 448 x  32  0.347 BFLOPs
    1 conv     64  3 x 3 / 2   448 x 448 x  32   ->   224 x 224 x  64  1.850 BFLOPs
    2 conv     32  1 x 1 / 1   224 x 224 x  64   ->   224 x 224 x  32  0.206 BFLOPs
    3 conv     64  3 x 3 / 1   224 x 224 x  32   ->   224 x 224 x  64  1.850 BFLOPs
    4 res    1                 224 x 224 x  64   ->   224 x 224 x  64
    5 conv    128  3 x 3 / 2   224 x 224 x  64   ->   112 x 112 x 128  1.850 BFLOPs
    6 conv     64  1 x 1 / 1   112 x 112 x 128   ->   112 x 112 x  64  0.206 BFLOPs
    7 conv    128  3 x 3 / 1   112 x 112 x  64   ->   112 x 112 x 128  1.850 BFLOPs
    8 res    5                 112 x 112 x 128   ->   112 x 112 x 128
    9 conv     64  1 x 1 / 1   112 x 112 x 128   ->   112 x 112 x  64  0.206 BFLOPs
   10 conv    128  3 x 3 / 1   112 x 112 x  64   ->   112 x 112 x 128  1.850 BFLOPs
   11 res    8                 112 x 112 x 128   ->   112 x 112 x 128
   12 conv    256  3 x 3 / 2   112 x 112 x 128   ->    56 x  56 x 256  1.850 BFLOPs
   13 conv    128  1 x 1 / 1    56 x  56 x 256   ->    56 x  56 x 128  0.206 BFLOPs
   14 conv    256  3 x 3 / 1    56 x  56 x 128   ->    56 x  56 x 256  1.850 BFLOPs
   15 res   12                  56 x  56 x 256   ->    56 x  56 x 256
   16 conv    128  1 x 1 / 1    56 x  56 x 256   ->    56 x  56 x 128  0.206 BFLOPs
   17 conv    256  3 x 3 / 1    56 x  56 x 128   ->    56 x  56 x 256  1.850 BFLOPs
   18 res   15                  56 x  56 x 256   ->    56 x  56 x 256
   19 conv    128  1 x 1 / 1    56 x  56 x 256   ->    56 x  56 x 128  0.206 BFLOPs
   20 conv    256  3 x 3 / 1    56 x  56 x 128   ->    56 x  56 x 256  1.850 BFLOPs
   21 res   18                  56 x  56 x 256   ->    56 x  56 x 256
   22 conv    128  1 x 1 / 1    56 x  56 x 256   ->    56 x  56 x 128  0.206 BFLOPs
   23 conv    256  3 x 3 / 1    56 x  56 x 128   ->    56 x  56 x 256  1.850 BFLOPs
   24 res   21                  56 x  56 x 256   ->    56 x  56 x 256
   25 conv    128  1 x 1 / 1    56 x  56 x 256   ->    56 x  56 x 128  0.206 BFLOPs
   26 conv    256  3 x 3 / 1    56 x  56 x 128   ->    56 x  56 x 256  1.850 BFLOPs
   27 res   24                  56 x  56 x 256   ->    56 x  56 x 256
   28 conv    128  1 x 1 / 1    56 x  56 x 256   ->    56 x  56 x 128  0.206 BFLOPs
   29 conv    256  3 x 3 / 1    56 x  56 x 128   ->    56 x  56 x 256  1.850 BFLOPs
   30 res   27                  56 x  56 x 256   ->    56 x  56 x 256
   31 conv    128  1 x 1 / 1    56 x  56 x 256   ->    56 x  56 x 128  0.206 BFLOPs
   32 conv    256  3 x 3 / 1    56 x  56 x 128   ->    56 x  56 x 256  1.850 BFLOPs
   33 res   30                  56 x  56 x 256   ->    56 x  56 x 256
   34 conv    128  1 x 1 / 1    56 x  56 x 256   ->    56 x  56 x 128  0.206 BFLOPs
   35 conv    256  3 x 3 / 1    56 x  56 x 128   ->    56 x  56 x 256  1.850 BFLOPs
   36 res   33                  56 x  56 x 256   ->    56 x  56 x 256
   37 conv    512  3 x 3 / 2    56 x  56 x 256   ->    28 x  28 x 512  1.850 BFLOPs
   38 conv    256  1 x 1 / 1    28 x  28 x 512   ->    28 x  28 x 256  0.206 BFLOPs
   39 conv    512  3 x 3 / 1    28 x  28 x 256   ->    28 x  28 x 512  1.850 BFLOPs
   40 res   37                  28 x  28 x 512   ->    28 x  28 x 512
   41 conv    256  1 x 1 / 1    28 x  28 x 512   ->    28 x  28 x 256  0.206 BFLOPs
   42 conv    512  3 x 3 / 1    28 x  28 x 256   ->    28 x  28 x 512  1.850 BFLOPs
   43 res   40                  28 x  28 x 512   ->    28 x  28 x 512
   44 conv    256  1 x 1 / 1    28 x  28 x 512   ->    28 x  28 x 256  0.206 BFLOPs
   45 conv    512  3 x 3 / 1    28 x  28 x 256   ->    28 x  28 x 512  1.850 BFLOPs
   46 res   43                  28 x  28 x 512   ->    28 x  28 x 512
   47 conv    256  1 x 1 / 1    28 x  28 x 512   ->    28 x  28 x 256  0.206 BFLOPs
   48 conv    512  3 x 3 / 1    28 x  28 x 256   ->    28 x  28 x 512  1.850 BFLOPs
   49 res   46                  28 x  28 x 512   ->    28 x  28 x 512
   50 conv    256  1 x 1 / 1    28 x  28 x 512   ->    28 x  28 x 256  0.206 BFLOPs
   51 conv    512  3 x 3 / 1    28 x  28 x 256   ->    28 x  28 x 512  1.850 BFLOPs
   52 res   49                  28 x  28 x 512   ->    28 x  28 x 512
   53 conv    256  1 x 1 / 1    28 x  28 x 512   ->    28 x  28 x 256  0.206 BFLOPs
   54 conv    512  3 x 3 / 1    28 x  28 x 256   ->    28 x  28 x 512  1.850 BFLOPs
   55 res   52                  28 x  28 x 512   ->    28 x  28 x 512
   56 conv    256  1 x 1 / 1    28 x  28 x 512   ->    28 x  28 x 256  0.206 BFLOPs
   57 conv    512  3 x 3 / 1    28 x  28 x 256   ->    28 x  28 x 512  1.850 BFLOPs
   58 res   55                  28 x  28 x 512   ->    28 x  28 x 512
   59 conv    256  1 x 1 / 1    28 x  28 x 512   ->    28 x  28 x 256  0.206 BFLOPs
   60 conv    512  3 x 3 / 1    28 x  28 x 256   ->    28 x  28 x 512  1.850 BFLOPs
   61 res   58                  28 x  28 x 512   ->    28 x  28 x 512
   62 conv   1024  3 x 3 / 2    28 x  28 x 512   ->    14 x  14 x1024  1.850 BFLOPs
   63 conv    512  1 x 1 / 1    14 x  14 x1024   ->    14 x  14 x 512  0.206 BFLOPs
   64 conv   1024  3 x 3 / 1    14 x  14 x 512   ->    14 x  14 x1024  1.850 BFLOPs
   65 res   62                  14 x  14 x1024   ->    14 x  14 x1024
   66 conv    512  1 x 1 / 1    14 x  14 x1024   ->    14 x  14 x 512  0.206 BFLOPs
   67 conv   1024  3 x 3 / 1    14 x  14 x 512   ->    14 x  14 x1024  1.850 BFLOPs
   68 res   65                  14 x  14 x1024   ->    14 x  14 x1024
   69 conv    512  1 x 1 / 1    14 x  14 x1024   ->    14 x  14 x 512  0.206 BFLOPs
   70 conv   1024  3 x 3 / 1    14 x  14 x 512   ->    14 x  14 x1024  1.850 BFLOPs
   71 res   68                  14 x  14 x1024   ->    14 x  14 x1024
   72 conv    512  1 x 1 / 1    14 x  14 x1024   ->    14 x  14 x 512  0.206 BFLOPs
   73 conv   1024  3 x 3 / 1    14 x  14 x 512   ->    14 x  14 x1024  1.850 BFLOPs
   74 res   71                  14 x  14 x1024   ->    14 x  14 x1024
   75 avg                       14 x  14 x1024   ->  1024
   76 conv   1000  1 x 1 / 1     1 x   1 x1024   ->     1 x   1 x1000  0.002 BFLOPs
   77 softmax                                        1000
Loading weights from /home/ubuntu/GPU-Sched/Benchmarks/darknet/weights/darknet53_448.weights...Done!
/home/ubuntu/GPU-Sched/Benchmarks/darknet/data/dog.jpg: Predicted in 0.290230 seconds.
/home/ubuntu/GPU-Sched/Benchmarks/darknet/data/eagle.jpg: Predicted in 0.028424 seconds.
/home/ubuntu/GPU-Sched/Benchmarks/darknet/data/giraffe.jpg: Predicted in 0.055278 seconds.
…
