…
6111448517667 _bemps_dump_stats: Dumping bemps stats
6111448519849 _bemps_dump_stats: count of beacon times: 1
6111448526468 _bemps_dump_stats: min beacon time (ns): 175048
6111448528456 _bemps_dump_stats: max beacon time (ns): 175048
6111448530556 _bemps_dump_stats: avg beacon time (ns): 175048
6111448557635 _bemps_dump_stats: count of free times: 1
6111448559968 _bemps_dump_stats: min free time (ns): 41857
6111448563076 _bemps_dump_stats: max free time (ns): 41857
6111448565636 _bemps_dump_stats: avg free time (ns): 41857

layer     filters    size              input                output
    0 conv     16  3 x 3 / 1   416 x 416 x   3   ->   416 x 416 x  16  0.150 BFLOPs
    1 max          2 x 2 / 2   416 x 416 x  16   ->   208 x 208 x  16
    2 conv     32  3 x 3 / 1   208 x 208 x  16   ->   208 x 208 x  32  0.399 BFLOPs
    3 max          2 x 2 / 2   208 x 208 x  32   ->   104 x 104 x  32
    4 conv     64  3 x 3 / 1   104 x 104 x  32   ->   104 x 104 x  64  0.399 BFLOPs
    5 max          2 x 2 / 2   104 x 104 x  64   ->    52 x  52 x  64
    6 conv    128  3 x 3 / 1    52 x  52 x  64   ->    52 x  52 x 128  0.399 BFLOPs
    7 max          2 x 2 / 2    52 x  52 x 128   ->    26 x  26 x 128
    8 conv    256  3 x 3 / 1    26 x  26 x 128   ->    26 x  26 x 256  0.399 BFLOPs
    9 max          2 x 2 / 2    26 x  26 x 256   ->    13 x  13 x 256
   10 conv    512  3 x 3 / 1    13 x  13 x 256   ->    13 x  13 x 512  0.399 BFLOPs
   11 max          2 x 2 / 1    13 x  13 x 512   ->    13 x  13 x 512
   12 conv   1024  3 x 3 / 1    13 x  13 x 512   ->    13 x  13 x1024  1.595 BFLOPs
   13 conv    256  1 x 1 / 1    13 x  13 x1024   ->    13 x  13 x 256  0.089 BFLOPs
   14 conv    512  3 x 3 / 1    13 x  13 x 256   ->    13 x  13 x 512  0.399 BFLOPs
   15 conv    255  1 x 1 / 1    13 x  13 x 512   ->    13 x  13 x 255  0.044 BFLOPs
   16 yolo
   17 route  13
   18 conv    128  1 x 1 / 1    13 x  13 x 256   ->    13 x  13 x 128  0.011 BFLOPs
   19 upsample            2x    13 x  13 x 128   ->    26 x  26 x 128
   20 route  19 8
   21 conv    256  3 x 3 / 1    26 x  26 x 384   ->    26 x  26 x 256  1.196 BFLOPs
   22 conv    255  1 x 1 / 1    26 x  26 x 256   ->    26 x  26 x 255  0.088 BFLOPs
   23 yolo
Loading weights from /home/ubuntu/GPU-Sched/Benchmarks/darknet/weights/yolov3-tiny.weights...Done!

Worker 2: TOTAL_BENCHMARK_TIME 2 84.61586666107178
Worker 2: TIME_SINCE_START     2 84.6194109916687
suc
6028233257461 bemps_begin: pid 119544 , num_blocks 12168 , threads_per_block 512
6028233301185 bemps_beacon: pid 119544 , bemps_tid 0 , mem_B 1083849160 , warps 194688 , thread_blocks 12168
…
